…
WARNING:tensorflow:From D:\SK\dog_cat_cnn_project\src\data_loader.py:22: ignore_errors (from tensorflow.python.data.experimental.ops.error_ops) is deprecated and will be removed in a future version.
Instructions for updating:
Use `tf.data.Dataset.ignore_errors` instead.
🧠 Building V1 Advanced CNN model...
Model: "sequential"
┏━━━━━━━━━━━━━━━━━━━━━━━━━━━━━━━━━━━━━━┳━━━━━━━━━━━━━━━━━━━━━━━━━━━━━┳━━━━━━━━━━━━━━━━━┓
┃ Layer (type)                         ┃ Output Shape                ┃         Param # ┃
┡━━━━━━━━━━━━━━━━━━━━━━━━━━━━━━━━━━━━━━╇━━━━━━━━━━━━━━━━━━━━━━━━━━━━━╇━━━━━━━━━━━━━━━━━┩
│ conv2d (Conv2D)                      │ (None, 128, 128, 32)        │             896 │
├──────────────────────────────────────┼─────────────────────────────┼─────────────────┤
│ batch_normalization                  │ (None, 128, 128, 32)        │             128 │
│ (BatchNormalization)                 │                             │                 │
├──────────────────────────────────────┼─────────────────────────────┼─────────────────┤
│ max_pooling2d (MaxPooling2D)         │ (None, 64, 64, 32)          │               0 │
├──────────────────────────────────────┼─────────────────────────────┼─────────────────┤
│ separable_conv2d (SeparableConv2D)   │ (None, 64, 64, 64)          │           2,400 │
├──────────────────────────────────────┼─────────────────────────────┼─────────────────┤
│ batch_normalization_1                │ (None, 64, 64, 64)          │             256 │
│ (BatchNormalization)                 │                             │                 │
├──────────────────────────────────────┼─────────────────────────────┼─────────────────┤
│ max_pooling2d_1 (MaxPooling2D)       │ (None, 32, 32, 64)          │               0 │
├──────────────────────────────────────┼─────────────────────────────┼─────────────────┤
│ separable_conv2d_1 (SeparableConv2D) │ (None, 32, 32, 128)         │           8,896 │
├──────────────────────────────────────┼─────────────────────────────┼─────────────────┤
│ batch_normalization_2                │ (None, 32, 32, 128)         │             512 │
│ (BatchNormalization)                 │                             │                 │
├──────────────────────────────────────┼─────────────────────────────┼─────────────────┤
│ max_pooling2d_2 (MaxPooling2D)       │ (None, 16, 16, 128)         │               0 │
├──────────────────────────────────────┼─────────────────────────────┼─────────────────┤
│ separable_conv2d_2 (SeparableConv2D) │ (None, 16, 16, 256)         │          34,176 │
├──────────────────────────────────────┼─────────────────────────────┼─────────────────┤
│ batch_normalization_3                │ (None, 16, 16, 256)         │           1,024 │
│ (BatchNormalization)                 │                             │                 │
├──────────────────────────────────────┼─────────────────────────────┼─────────────────┤
│ max_pooling2d_3 (MaxPooling2D)       │ (None, 8, 8, 256)           │               0 │
├──────────────────────────────────────┼─────────────────────────────┼─────────────────┤
│ global_average_pooling2d             │ (None, 256)                 │               0 │
│ (GlobalAveragePooling2D)             │                             │                 │
├──────────────────────────────────────┼─────────────────────────────┼─────────────────┤
│ dropout (Dropout)                    │ (None, 256)                 │               0 │
├──────────────────────────────────────┼─────────────────────────────┼─────────────────┤
│ dense (Dense)                        │ (None, 128)                 │          32,896 │
├──────────────────────────────────────┼─────────────────────────────┼─────────────────┤
│ dropout_1 (Dropout)                  │ (None, 128)                 │               0 │
├──────────────────────────────────────┼─────────────────────────────┼─────────────────┤
│ dense_1 (Dense)                      │ (None, 2)                   │             258 │
└──────────────────────────────────────┴─────────────────────────────┴─────────────────┘
 Total params: 81,442 (318.13 KB)
 Trainable params: 80,482 (314.38 KB)
 Non-trainable params: 960 (3.75 KB)
🚀 Training started...
Epoch 1/10
     25/Unknown 5s 142ms/step - accuracy: 0.5431 - loss: 0.8451Corrupt JPEG data: 65 extraneous bytes before marker 0xd9
     28/Unknown 6s 142ms/step - accuracy: 0.5445 - loss: 0.8408Corrupt JPEG data: 162 extraneous bytes before marker 0xd9
…
